Algorithm/snapshots/dehazer.pth (torch_old, 8729 bytes, 10 tensors)

e_conv1.weight f4 [3, 3, 1, 1]
-0.06866786 0.10580098 0.095307894 -0.07602214 0.13059357 0.08724733 -0.065773815 0.08703331
0.1012712
00000000: bca1 8cbd 2fae d83d c930 c33d 7fb1 9bbd
00000010: 52ba 053e baae b23d 6cb4 86bd 853e b23d
00000020: 4667 cf3d

e_conv1.bias f4 [3]
0.2580516 0.09217383 0.031708606
00000000: 571f 843e a2c5 bc3d e2e0 013d

e_conv2.weight f4 [3, 3, 3, 3]
9.23e-42 -1.47083e-40 8.4934e-41 -9.9366e-41 1.7132e-41 8.5433e-41 1.5049e-40 -1.06579e-40
-1.12524e-40 9.0789e-41 -1.483e-41 6.7684e-41 1.1485e-40 1.33793e-40 1.30703e-40 -4.1172e-41
1.29107e-40 6.635e-41 4.1876e-41 9.1697e-41 2.4922e-41 -5.3441e-41 1.00332e-40 -1.26675e-40
-1.30597e-40 -6.1419e-41 -9.157e-42 0.046103362 0.0710362 0.038444586 0.040705565 0.04243841
0.017047923 0.049725868 0.051813256 0.037163127 0.07434189 0.062756814 0.03751617 0.05902425
0.09465856 0.063643664 0.040747836 0.06674204 0.034713916 0.06980347 0.08962494 0.086477764
0.09664245 0.08331154 0.07601655 0.101450145 0.07672742 0.07626042 -1.84576e-40 6.5613e-41
-4.2576e-41 8.7255e-41 1.32833e-40 4.1006e-41 1.50316e-40 1.77511e-40 -1.47459e-40 1.30986e-40
1.77752e-40 1.56185e-40 1.02372e-40 -1.01326e-40 4.8914e-41 -7.2828e-41 8.8617e-41 -1.39289e-40
-1.2402e-40 1.04444e-40 -3.9868e-41 -1.2735e-40 -9.7847e-41 3.0183e-41 -1.07126e-40 -8.6012e-41
1.01349e-40
00000000: bb19 0000 029a 0180 c3ec 0000 fe14 0180
00000010: c22f 0000 27ee 0000 81a3 0100 1929 0180
00000020: ac39 0180 15fd 0000 5729 0080 adbc 0000
00000030: 2840 0100 f674 0100 596c 0100 c572 0080
00000040: e667 0100 f5b8 0000 bc74 0000 9dff 0000
00000050: 7945 0000 f994 0080 af17 0100 1e61 0180
00000060: 0d6c 0180 36ab 0080 8719 0080 e1d6 3c3d
00000070: 6d7b 913d 1278 1d3d e1ba 263d e6d3 2d3d
00000080: 16a8 8b3c 5aad 4b3d 233a 543d 5d38 183d
00000090: 9040 983d a586 803d 8eaa 193d 69c3 713d
000000a0: 59dc c13d 9c57 823d 34e7 263d 0db0 883d
000000b0: 2e30 0e3d 1ff5 8e3d 488d b73d 411b b13d
000000c0: 7aec c53d 3e9f aa3d 91ae 9b3d 18c5 cf3d
000000d0: 4423 9d3d 6c2e 9c3d 8602 0280 e7b6 0000
000000e0: af76 0080 3bf3 0000 4972 0100 4f72 0000
000000f0: 05a3 0100 d4ee 0100 0e9b 0180 236d 0100
00000100: 80ef 0100 61b3 0100 5f1d 0100 751a 0180
00000110: 5a88 0000 04cb 0080 07f7 0000 4884 0180
00000120: b859 0180 2623 0100 236f 0080 0063 0180
00000130: c210 0180 2354 0000 a02a 0180 c4ef 0080
00000140: 851a 0100

e_conv2.bias f4 [3]
-4.7166e-41 0.10517335 8.9937e-41
00000000: 7b83 0080 2065 d73d b5fa 0000

e_conv3.weight f4 [3, 6, 5, 5]
-1.53727e-40 1.6626e-41 -1.29079e-40 -3.0354e-41 -1.07314e-40 -7.9437e-41 5.4728e-41 1.14033e-40
8.4497e-41 -9.507e-41 -1.31805e-40 9.9714e-41 -6.672e-42 -3.1414e-41 1.56543e-40 -1.167e-40
1.30842e-40 8.5224e-41 7.7207e-41 -1.12198e-40 1.51012e-40 -8.4427e-41 1.09181e-40 -1.783e-41
8.2112e-41 -6.0807e-41 -1.59221e-40 -1.74385e-40 -1.21058e-40 7.0418e-41 3.4323e-41 1.22284e-40
1.39897e-40 -1.4092e-40 1.5773e-41 -2.6829e-41 1.19738e-40 1.7133e-40 -1.3664e-41 4.8374e-41
1.87721e-40 4.257e-41 1.76683e-40 -6.8444e-41 -8.3438e-41 -1.45595e-40 -6.11e-41 3.0031e-41
-1.2156e-41 1.45909e-40 -1.23304e-40 4.2654e-41 1.16564e-40 -9.9754e-41 -6.5347e-41 -9.8377e-41
1.9244e-41 -2.832e-41 -1.06909e-40 -6.0358e-41 2.0155e-40 7.7402e-41 -4.683e-42 1.8949e-40
-7.4971e-41 5.0339e-41 1.28599e-40 -9.74e-41 -1.26439e-40 -7.9789e-41 -1.56278e-40 -8.2922e-41
3.6274e-41 -1.17776e-40 -9.1955e-41 3.844e-41 -9.245e-41 -1.84292e-40 -8.4187e-41 1.7027e-41
1.61333e-40 -1.64501e-40 4.7447e-41 -3.722e-41 -1.15239e-40 1.13211e-40 -1.00077e-40 8.07e-41
-1.55911e-40 1.1936e-40 -9.1307e-41 1.98225e-40 9.0835e-41 4.5863e-41 -1.00423e-40 1.8374e-41
5.812e-41 -7.193e-42 8.0331e-41 1.8686e-40 -1.2713e-40 6.5365e-41 -1.48843e-40 2.6272e-41
-3.084e-42 -4.0182e-41 -9.2197e-41 1.76105e-40 -1.49e-41 1.01881e-40 -1.10477e-40 -1.4924e-41
1.97783e-40 8.0401e-41 -8.3615e-41 -9.0636e-41 7.9797e-41 -1.40306e-40 -5.222e-41 -1.64242e-40
5.003e-41 1.49129e-40 -8.4474e-41 6.2319e-41 5.9533e-41 1.11284e-40 5.3185e-41 1.79202e-40
1.29975e-40 1.30995e-40 -6.6485e-41 -1.17304e-40 4.8737e-41 -4.6997e-41 1.17709e-40 1.06946e-40
-1.17821e-40 1.0723e-40 5.1257e-41 -1.78971e-40 1.36238e-40 -3.6603e-41 -1.12896e-40 -1.17069e-40
-9.5071e-41 1.674e-40 -1.31321e-40 -1.32683e-40 -8.8783e-41 3.7507e-41 0.015927568 0.03775687
0.0356589 0.022790536 0.05338708 0.030610733 0.011551673 0.019493232 0.023318961 0.028017871
0.032974035 0.047994077 0.021191774 0.049906824 0.029187314 0.033318903 0.013469476 0.01572491
0.029842423 0.019194352 -0.0010794317 -0.013371916 0.031275447 0.0052430453 0.014927262 0.046383444
0.042364314 0.059360214 0.06573233 0.06098254 0.077479735 0.05166881 0.07023426 0.06645181
0.055154752 0.06957787 0.06052833 0.04081608 0.045382604 0.037407584 0.023413273 0.037959863
0.054370314 0.04192285 0.07000194 0.04075906 0.07196623 0.037155747 0.050949894 0.054150444
0.0688424 0.04626935 0.05348379 0.06124826 0.048142612 0.057866283 0.027953707 0.050303254
0.04987673 0.04688593 0.013082812 0.04698349 0.039610337 0.073064 0.05270092 0.062981576
0.04827915 0.05083071 0.06056726 0.042686444 0.051263466 0.06303425 0.03780616 0.05412492
0.051087417 1.40126e-40 -4.7651e-41 6.7564e-41 8.6621e-41 -8.9525e-41 1.34928e-40 6.033e-42
9.6847e-41 1.40721e-40 7.8204e-41 -1.2832e-41 6.2812e-41 -8.4409e-41 -7.6148e-41 -1.6045e-40
-8.6457e-41 -2.0273e-41 -1.454e-41 1.47766e-40 -1.23883e-40 -5.453e-41 5.7258e-41 8.6696e-41
3.7403e-41 -3.8302e-41 0.06419686 0.0641376 0.049264554 0.06384885 0.050600395 0.04564941
00000000: 87ac 0180 592e 0000 d267 0180 9d54 0080
00000010: 262b 0180 70dd 0080 8f98 0000 e13d 0100
00000020: 8beb 0000 0409 0180 6b6f 0180 f615 0100
00000030: 9912 0080 9257 0080 61b4 0100 5045 0180
00000040: bc6c 0100 92ed 0000 39d7 0000 c338 0180
00000050: f6a4 0100 59eb 0080 5a30 0100 b431 0080
00000060: e5e4 0000 81a9 0080 d8bb 0180 1de6 0180
00000070: 7651 0180 4cc4 0000 ae5f 0000 e154 0100
00000080: fa85 0100 d488 0180 f82b 0000 ca4a 0080
00000090: c84d 0100 99dd 0100 1726 0080 d986 0000
000000a0: 4a0b 0200 ab76 0000 85ec 0100 cbbe 0080
000000b0: 97e8 0080 dc95 0180 52aa 0080 b753 0000
000000c0: e321 0080 bc96 0100 b957 0180 e776 0000
000000d0: ef44 0100 1316 0180 29b6 0080 3c12 0180
000000e0: a535 0000 f24e 0080 052a 0180 41a8 0080
000000f0: d731 0200 c4d7 0000 0e0d 0080 3910 0200
00000100: fdd0 0080 538c 0000 7b66 0100 830f 0180
00000110: 7660 0180 6bde 0080 a4b3 0180 27e7 0080
00000120: 1e65 0000 5048 0180 5500 0180 286b 0000
00000130: b701 0180 bb01 0280 aeea 0080 772f 0000
00000140: bbc1 0100 90ca 0180 4384 0000 c167 0080
00000150: 3d41 0180 963b 0100 f916 0180 f5e0 0000
00000160: 9eb2 0180 ba4c 0100 87fe 0080 9228 0200
00000170: 36fd 0000 d97f 0000 f017 0180 3833 0000
00000180: 04a2 0000 0d14 0080 eedf 0000 e408 0200
00000190: 6362 0180 36b6 0000 ea9e 0180 3c49 0000
000001a0: 9908 0080 0370 0080 0201 0180 e9ea 0100
000001b0: 8929 0080 011c 0100 f733 0180 9a29 0080
000001c0: 5727 0200 20e0 0000 16e9 0080 a8fc 0080
000001d0: 71de 0000 1e87 0180 9191 0080 d7c9 0180
000001e0: 778b 0000 b69f 0100 7beb 0080 b8ad 0000
000001f0: f4a5 0000 3736 0100 4294 0000 8bf3 0100
00000200: 516a 0100 296d 0100 55b9 0080 ff46 0180
00000210: dc87 0000 0283 0080 2048 0100 1f2a 0100
00000220: 7048 0180 ea2a 0100 e28e 0000 e6f2 0180
00000230: c77b 0100 0966 0080 b53a 0180 5746 0180
00000240: 0509 0180 a5d2 0100 126e 0180 de71 0180
00000250: 7ef7 0080 8e68 0000 887a 823c f3a6 1a3d
00000260: 110f 123d 38b3 ba3c 69ac 5a3d 5cc3 fa3c
00000270: 3a43 3d3c 45b0 9f3c 6807 bf3c bc85 e53c
00000280: c80f 073d 7095 443d 5f9a ad3c 196b 4c3d
00000290: 3c1a ef3c 6779 083d 14af 5c3c 87d1 803c
000002a0: 1978 f43c 793d 9d3c b87b 8dba e115 5bbc
000002b0: af1a 003d dacd ab3b 7a91 743c 91fc 3d3d
000002c0: 3486 2d3d b223 733d ac9e 863d d4c8 793d
000002d0: b2ad 9e3d ada2 533d fbd6 8f3d e317 883d
000002e0: f3e9 613d d87e 8e3d 8eec 773d c32e 273d
000002f0: 1ce3 393d b238 193d 31cd bf3c cd7b 1b3d
00000300: 68b3 5e3d 4bb7 2b3d 2d5d 8f3d f9f2 263d
00000310: 0863 933d a030 183d d6b0 503d dbcc 5d3d
00000320: 3ffd 8c3d ee84 3d3d d211 5b3d 75df 7a3d
00000330: 3031 453d 3205 6d3d 2cff e43c c90a 4e3d
00000340: 8b4b 4c3d 760b 403d 4a59 563c c371 403d
00000350: 733e 223d 94a2 953d ebdc 573d 7cfc 803d
00000360: 5cc0 453d dd33 503d 6015 783d fbd7 2e3d
00000370: a4f9 513d 1a18 813d a2da 1a3d 18b2 5d3d
00000380: 0a41 513d 9d86 0100 d584 0080 57bc 0000
00000390: 77f1 0000 8ff9 0080 2078 0100 d110 0000
000003a0: f80d 0100 4688 0100 00da 0000 c523 0080
000003b0: 18af 0000 4ceb 0080 45d4 0080 45bf 0180
000003c0: 02f1 0080 8338 0080 8828 0080 e99b 0100
000003d0: 5659 0180 0298 0080 9d9f 0000 acf1 0000
000003e0: 4468 0000 c56a 0080 a579 833d 935a 833d
000003f0: a1c9 493d 30c3 823d 5c42 4f3d e0fa 3a3d

e_conv3.bias f4 [3]
-1.41058e-40 0.01791167 0.03047861
00000000: 3689 0180 7fbb 923c 47ae f93c

e_conv4.weight f4 [3, 6, 7, 7]
9.079e-41 -1.36757e-40 1.92082e-40 -5.5447e-41 -1.079e-41 1.42169e-40 7.6102e-41 -1.13466e-40
-9.0241e-41 -3.3173e-41 7.5208e-41 9.4792e-41 -9.7111e-41 8.0132e-41 -1.13285e-40 9.1222e-41
1.47134e-40 1.31082e-40 1.8826e-41 1.02819e-40 -1.35796e-40 -5.245e-41 -1.11734e-40 -1.83682e-40
4.57e-42 -2.53e-41 -9.393e-42 -4.9264e-41 -4.177e-42 8.0367e-41 -6.3497e-41 -1.50839e-40
-1.12471e-40 3.0019e-41 9.9628e-41 -5.57e-41 8.1357e-41 -1.26456e-40 2.00478e-40 2.1207e-41
1.76569e-40 4.3153e-41 3.5323e-41 -1.0951e-41 -1.19801e-40 -1.11763e-40 -2.681e-41 -1.03014e-40
1.06438e-40 2.6215e-41 4.2371e-41 3.623e-41 5.1089e-41 3.9277e-41 4.0762e-41 3.4323e-41
3.3414e-41 4.4704e-41 3.933e-41 4.9156e-41 5.2993e-41 3.9912e-41 5.1492e-41 3.3342e-41
5.008e-41 4.2937e-41 5.8932e-41 5.1932e-41 5.2938e-41 3.1135e-41 5.1586e-41 4.9769e-41
5.0556e-41 5.167e-41 5.9508e-41 5.7937e-41 3.8946e-41 3.2189e-41 4.2556e-41 5.9346e-41
6.6995e-41 5.2048e-41 4.6275e-41 5.7407e-41 4.7634e-41 4.1142e-41 4.4079e-41 5.8869e-41
5.6652e-41 5.5924e-41 3.8967e-41 4.3066e-41 4.379e-41 5.782e-41 5.5515e-41 5.0438e-41
4.3395e-41 3.4308e-41 1.11473e-40 -2.9445e-41 -2.2523e-41 3.7073e-41 1.87533e-40 -7.2862e-41
-4.9955e-41 -1.42481e-40 8.7528e-41 -1.0217e-40 1.57115e-40 1.55904e-40 -9.3901e-41 -1.23541e-40
-1.86458e-40 3.9339e-41 -8.7721e-41 1.26016e-40 -1.12248e-40 -4.7127e-41 1.08945e-40 -1.49163e-40
-4.4947e-41 -1.0273e-40 4.8954e-41 -1.28153e-40 -1.15209e-40 -3.5917e-41 1.1745e-40 1.0137e-40
9.3838e-41 4.005e-41 -1.22147e-40 5.0115e-41 -5.8588e-41 -1.0531e-40 1.04981e-40 1.67727e-40
1.64172e-40 -5.0524e-41 -1.06873e-40 -4.8548e-41 -1.0796e-40 -1.16592e-40 -1.1791e-40 1.43098e-40
-1.50124e-40 5.0025e-41 -5.255e-41 -9.6499e-41 -1.78685e-40 1.55202e-40 -1.11351e-40 1.12669e-40
1.80175e-40 1.5081e-41 -9.296e-42 -1.2808e-40 7.2007e-41 1.6241e-40 1.26136e-40 -1.40051e-40
-1.70678e-40 1.07623e-40 -1.0776e-40 1.74208e-40 1.73193e-40 1.80902e-40 1.68761e-40 6.1245e-41
1.9404e-41 -1.27985e-40 -1.46196e-40 -3.0768e-41 -6.6726e-41 -2.7733e-41 -4.602e-42 1.6991e-40
5.1671e-41 2.0706e-41 -1.2752e-40 -1.634e-42 -1.0765e-40 1.13445e-40 -3.6846e-41 -1.1129e-40
5.0985e-41 -1.85693e-40 4.455e-41 1.43487e-40 1.12313e-40 -2.743e-41 -1.3439e-40 6.129e-41
-6.6695e-41 2.1057e-41 -1.51098e-40 -1.11615e-40 -1.7025539e-20 -1.726844e-20 -1.686808e-20 -1.6528317e-20
-1.6466148e-20 -1.667832e-20 -1.6839572e-20 -1.6649294e-20 -1.6851853e-20 -1.6431665e-20 -1.6092007e-20 -1.6037707e-20
-1.6261728e-20 -1.6438786e-20 -1.624144e-20 -1.639765e-20 -1.5958164e-20 -1.5617333e-20 -1.5572061e-20 -1.5808296e-20
-1.6008011e-20 -1.5909011e-20 -1.6029322e-20 -1.5578239e-20 -1.5236903e-20 -1.5197442e-20 -1.5442675e-20 -1.5654986e-20
-1.5689379e-20 -1.5792817e-20 -1.5340976e-20 -1.500278e-20 -1.4965022e-20 -1.5207636e-20 -1.5420786e-20 -1.5610754e-20
-1.5715457e-20 -1.526845e-20 -1.4931266e-20 -1.4888083e-20 -1.512097e-20 -1.5324132e-20 -1.5593411e-20 -1.5702719e-20
-1.5262852e-20 -1.4924873e-20 -1.4870691e-20 -1.5087524e-20 -1.5275076e-20 -5.502628e-23 -5.592197e-23 -5.438562e-23
-5.305957e-23 -5.2787325e-23 -5.3562e-23 -5.43319e-23 -5.3523095e-23 -5.4246115e-23 -5.2650312e-23 -5.1316058e-23
00000000: 16fd 0000 397d 0180 7217 0200 909a 0080
00000010: 141e 0080 4f8c 0100 24d4 0000 4c3c 0180
00000020: 8efb 0080 795c 0080 a6d1 0000 3e08 0100
00000030: b50e 0180 60df 0000 cb3b 0180 4afe 0000
00000040: 269a 0100 676d 0100 7b34 0000 9e1e 0100
00000050: 8b7a 0180 3692 0080 7837 0180 0800 0280
00000060: bd0c 0000 8746 0080 2f1a 0080 5489 0080
00000070: a50b 0080 08e0 0000 01b1 0080 7aa4 0180
00000080: 8639 0180 ae53 0000 b915 0100 459b 0080
00000090: cae2 0000 8260 0180 da2e 0200 1e3b 0000
000000a0: 34ec 0100 4b78 0000 7762 0000 871e 0080
000000b0: f54d 0180 8d37 0180 bc4a 0080 291f 0180
000000c0: b528 0100 1449 0000 1d76 0000 ff64 0000
000000d0: 6a8e 0000 7d6d 0000 a171 0000 ae5f 0000
000000e0: 255d 0000 9e7c 0000 a36d 0000 0789 0000
000000f0: b993 0000 426f 0000 8a8f 0000 f25c 0000
00000100: 9a8b 0000 b177 0000 47a4 0000 c490 0000
00000110: 9293 0000 cb56 0000 cd8f 0000 bc8a 0000
00000120: ee8c 0000 0990 0000 e2a5 0000 81a1 0000
00000130: 916c 0000 bb59 0000 a176 0000 6fa5 0000
00000140: c1ba 0000 1791 0000 ff80 0000 07a0 0000
00000150: c984 0000 b072 0000 e07a 0000 1aa4 0000
00000160: ec9d 0000 e59b 0000 a06c 0000 0d78 0000
00000170: 127a 0000 2ea1 0000 c19a 0000 9a8c 0000
00000180: f878 0000 a35f 0000 be36 0100 1552 0080
00000190: c93e 0080 5867 0000 c40a 0200 1ccb 0080
000001a0: 418b 0080 2e8d 0180 fef3 0000 cf1c 0180
000001b0: f9b5 0100 99b2 0100 c205 0180 6258 0180
000001c0: c507 0280 a96d 0000 88f4 0080 485f 0100
000001d0: e738 0180 5f83 0080 b22f 0100 ce9f 0180
000001e0: 4b7d 0080 5f1e 0180 7788 0000 3d65 0180
000001f0: 2841 0180 1f64 0080 6747 0100 941a 0100
00000200: 9505 0100 a56f 0000 7f54 0180 b38b 0000
00000210: 52a3 0080 9025 0180 a524 0100 8ed3 0100
00000220: a5c9 0100 d78c 0080 eb29 0180 5587 0080
00000230: f32c 0180 0345 0180 af48 0180 e68e 0100
00000240: 7ca2 0180 738b 0000 7d92 0080 000d 0180
00000250: 1af2 0180 a4b0 0100 6736 0180 133a 0100
00000260: 41f6 0100 0a2a 0000 ea19 0080 0965 0180
00000270: bac8 0000 bcc4 0100 9e5f 0100 6886 0180
00000280: c8db 0180 022c 0100 642c 0180 9fe5 0100
00000290: cbe2 0100 48f8 0100 70d6 0100 baaa 0000
000002a0: 1736 0000 c564 0180 8997 0180 c555 0080
000002b0: 01ba 0080 4f4d 0080 d40c 0080 a4d9 0100
000002c0: 0a90 0000 b839 0000 7963 0180 8e04 0080
000002d0: 162c 0180 3d3c 0100 b666 0080 3b36 0180
000002e0: 208e 0000 a305 0280 307c 0000 fc8f 0100
000002f0: 1539 0100 774c 0080 a076 0180 daaa 0000
00000300: ebb9 0080 b33a 0000 33a5 0180 2337 0180
00000310: 3acd a09e 8718 a39e 8450 9f9e 051b 9c9e
00000320: b484 9b9e b485 9d9e 960b 9f9e 863f 9d9e
00000330: 4829 9f9e 5431 9b9e 16fc 979e cc78 979e
00000340: 7296 999e 8c42 9b9e 6465 999e 16df 9a9e
00000350: 79b8 969e 6580 939e ef12 939e 1d4e 959e
00000360: ff30 979e a141 969e 8664 979e df21 939e
00000370: 92e8 8f9e 2989 8f9e 19da 919e 6fdb 939e
00000380: 972e 949e b028 959e 34e4 909e 7fb2 8d9e
00000390: 3457 8d9e cfa1 8f9e 2ca5 919e 7d70 939e
000003a0: a56d 949e d934 909e 9605 8d9e 2d9d 8c9e
000003b0: 43d0 8e9e 7abb 909e 8e46 939e d84e 949e
000003c0: 5027 909e 21f6 8c9e 2073 8c9e 657f 8e9e
000003d0: de44 909e 9e0b 859a 0636 879a 117f 839a
000003e0: 484a 809a 8b43 7f9a 4681 819a d15d 839a
000003f0: 3169 819a b828 839a ee99 7e9a 3426 789a

e_conv4.bias f4 [3]
-1.1602621e-19 -0.010287626 -0.016373837
00000000: c5fa 08a0 6e8d 28bc 6d22 86bc

e_conv5.weight f4 [3, 12, 3, 3]
0.027709 0.013952808 0.031832937 0.0119605735 0.031882342 0.041196246 0.024517143 0.028557232
0.042248107 0.011114712 0.030224694 0.032771796 0.02980773 0.052010547 0.054082673 0.03521158
0.04102231 0.02801065 0.009327342 0.033156205 0.029642606 0.021424938 0.043428898 0.036646776
0.014918443 0.026922194 0.020936409 9.8618e-41 -4.5263e-41 8.7557e-41 -2.5373e-41 3.1805e-41
-4.1212e-41 -1.05434e-40 -7.8272e-41 -9.1821e-41 0.030491268 0.03878671 0.03904298 0.027659377
0.020227902 0.015449292 0.017675288 0.03182211 0.023378698 8.9324e-41 6.395e-41 -1.30542e-40
-2.1429e-41 -1.89519e-40 7.7674e-41 -3.6919e-41 2.00304e-40 -1.06e-43 -3.498e-42 2.1715e-41
6.6461e-41 4.8001e-41 3.458e-41 -1.13266e-40 1.32584e-40 -5.2878e-41 -8.7494e-41 0.045475718
0.062574066 0.05481349 0.05724086 0.05991412 0.030909013 0.028263774 0.056680337 0.038609505
0.055044323 0.042682923 0.023913722 0.07161484 0.03819299 0.05093951 0.038874988 0.074994564
0.05183817 -4.884334e-08 -4.905429e-08 -4.8839368e-08 -4.8728293e-08 -4.8931945e-08 -4.8716927e-08 -4.851159e-08
-4.8706447e-08 -4.8489213e-08 0.0037017942 0.0012994141 0.0033094645 -0.011386112 8.152362e-05 0.002944964
0.0022320573 -0.016358584 0.0019647516 0.020307072 0.014702007 0.020202301 0.018694967 0.019882958
0.018177716 0.018043 0.015825614 -0.0026356934 0.02174273 0.016636092 0.01477946 0.032805152
0.027877964 0.022746053 0.020868998 0.025047578 0.02502456 0.029326873 0.037099242 0.028430965
0.032392472 0.04092916 0.034132678 0.02822057 0.035843868 0.029822418 0.018001808 0.027297651
0.02063414 0.022910466 0.032456134 0.016229935 0.010793513 0.02587653 0.018583015 4.239e-42
6.5984e-41 -5.8274e-41 -1.1291e-40 -1.9454e-40 1.7931e-41 -5.3178e-41 -7.0752e-41 1.79134e-40
0.025325594 0.026542613 0.026795905 0.02539565 0.026937187 0.032625996 0.024450205 0.025785977
0.03754665 2.02684e-40 -1.72613e-40 -1.23148e-40 -1.46255e-40 1.56613e-40 1.56564e-40 8.2663e-41
-4.7938e-41 -1.685e-40 -9.7537e-41 -1.17659e-40 -1.417e-41 1.62202e-40 -1.8066e-41 -1.14153e-40
8.7189e-41 7.9365e-41 -1.4972e-40 0.036307257 0.031305082 0.0328385 0.031087639 0.02145237
0.031780273 0.03407445 0.030185798 0.03195341 0.030535785 0.029492306 0.031219661 0.029569231
0.028559895 0.030157419 0.02915501 0.028283965 0.026658084 -1.1747221e-06 -1.179966e-06 -1.1779485e-06
-1.1745386e-06 -1.1796128e-06 -1.1774598e-06 -1.172289e-06 -1.1771244e-06 -1.1749104e-06 -0.002760462 -0.0069332416
-0.0028600672 0.0070153344 -0.0056685773 -0.00406798 -0.0040189605 -0.0055660433 -0.0037014377 0.030956505
0.027643505 0.029485023 0.029080998 0.03247713 0.027946532 0.029191619 0.025870642 0.027782882
0.0099480795 0.033143517 0.02169501 0.022284284 0.028765269 0.02295933 0.03475467 0.025008883
0.020810995 0.028978972 0.040350202 0.032623295 0.033935025 0.044451583 0.03665687 0.028939709
0.03084502 0.031383414 0.034475647 0.048356365 0.03209607 0.042744964 0.054997403 0.043125525
0.022520244 0.041909013 0.033133116 5.1471e-41 -9.5811e-41 -3.3033e-41 8.5227e-41 1.14892e-40
1.09764e-40 -8.6442e-41 1.10037e-40 1.81195e-40 0.024089362 0.026818523 0.02614215 0.025213502
00000000: fcfd e23c 529a 643c 4163 023d 48f6 433c
00000010: 0f97 023d 65bd 283d 2dd8 c83c dbf0 e93c
00000020: 5a0c 2d3d 7b1a 363c c799 f73c b83b 063d
00000030: 572f f43c 0309 553d cb85 5d3d 053a 103d
00000040: 0207 283d 9776 e53c b5d1 183c cdce 073d
00000050: 0dd5 f23c 5a83 af3c 80e2 313d ee1a 163d
00000060: 7c6c 743c ef8b dc3c d582 ab3c e812 0100
00000070: 2d7e 0080 13f4 0000 bb46 0080 a958 0000
00000080: e272 0080 e825 0180 31da 0080 f6ff 0080
00000090: d3c8 f93c d0de 1e3d 88eb 1f3d eb95 e23c
000000a0: fcb4 a53c 071f 7d3c c4cb 903c e757 023d
000000b0: af84 bf3c 00f9 0000 44b2 0000 e66b 0180
000000c0: bc3b 0080 4d10 0280 86d8 0000 ea66 0080
000000d0: 5e2e 0200 4c00 0080 c009 0080 883c 0000
000000e0: 44b9 0000 cf85 0000 6560 0000 bd3b 0180
000000f0: 9771 0100 6793 0080 e6f3 0080 bf44 3a3d
00000100: d526 803d 1c84 603d 6475 6a3d 8268 753d
00000110: e634 fd3c 6e89 e73c a429 683d 0025 1e3d
00000120: 2876 613d 4ad4 2e3d b6e6 c33c cdaa 923d
00000130: 4170 1c3d f3a5 503d 613b 1f3d c096 993d
00000140: 4354 543d d2c7 51b3 c3af 52b3 74c3 51b3
00000150: 5349 51b3 3e29 52b3 d43c 51b3 0f5b 50b3
00000160: 4e31 51b3 7442 50b3 cd99 723b 1a51 aa3a
00000170: 9ae3 583b d18c 3abc a9f7 aa38 4c00 413b
00000180: b547 123b 7002 86bc 10c3 003b 045b a63c
00000190: b0e0 703c 4c7f a53c 3026 993c 96e1 a23c
000001a0: 6fe9 943c eace 933c b8a4 813c 99bb 2cbb
000001b0: cf1d b23c 6a48 883c 8c25 723c b25e 063d
000001c0: 5460 e43c ee55 ba3c 76f5 aa3c 9430 cd3c
000001d0: 4e00 cd3c e93e f03c 60f5 173d 0ee8 e83c
000001e0: f8ad 043d 56a5 273d b5ce 0b3d d32e e73c
000001f0: 05d1 123d 254e f43c 8778 933c 539f df3c
00000200: ee08 a93c bbae bb3c b9f0 043d a4f4 843c
00000210: 46d7 303c 04fb d33c 683b 983c d10b 0000
00000220: f0b7 0000 72a2 0080 bf3a 0180 4c1e 0280
00000230: fc31 0000 3d94 0080 3ac5 0080 5af3 0100
00000240: 9f77 cf3c e56f d93c 1683 db3c 8a0a d03c
00000250: 60ab dc3c d6a2 053d cc4b c83c 1d3d d33c
00000260: 84ca 193d 0035 0200 2de1 0180 4957 0180
00000270: b397 0180 93b4 0100 70b4 0100 6ee6 0000
00000280: a285 0080 b6d5 0180 e50f 0180 fc47 0180
00000290: 8027 0080 27c4 0100 5c32 0080 363e 0180
000002a0: 0cf3 0000 3ddd 0000 5ca1 0180 ebb6 143d
000002b0: c239 003d aa81 063d 81ab fe3c e1bc af3c
000002c0: 082c 023d a791 0b3d 3548 f73c 94e1 023d
000002d0: 2f26 fa3c d999 f13c 60c0 ff3c 2c3b f23c
000002e0: 71f6 e93c b10c f73c 7dd6 ee3c c6b3 e73c
000002f0: 0e62 da3c 25ab 9db5 535f 9eb5 011a 9eb5
00000300: d7a4 9db5 3053 9eb5 3609 9eb5 8b57 9db5
00000310: b0fd 9db5 9db1 9db5 dee8 34bb 3f30 e3bb
00000320: f76f 3bbb e4e0 e53b 79bf b9bb b14c 85bb
00000330: 7cb1 83bb 5b63 b6bb d293 72bb 7f98 fd3c
00000340: a274 e23c 938a f13c 463b ee3c bd06 053d
00000350: 20f0 e43c 4323 ef3c abee d33c ed98 e33c
00000360: 45fd 223c 7fc1 073d bcb9 b13c 888d b63c
00000370: 24a5 eb3c 3415 bc3c ea5a 0e3d 6edf cc3c
00000380: d27b aa3c 4f65 ed3c 4146 253d 01a0 053d
00000390: 74ff 0a3d dd12 363d 8425 163d f812 ed3c
000003a0: b2ae fc3c e58b 003d 5636 0d3d 5311 463d
000003b0: 2b77 033d 5815 2f3d f544 613d 64a4 303d
000003c0: 607c b83c c9a8 2b3d 97b6 073d 7b8f 0000
000003d0: 150b 0180 155c 0080 94ed 0000 4640 0100
000003e0: fa31 0100 f7f0 0080 bd32 0100 19f9 0100
000003f0: 0e57 c53c 85b2 db3c 1028 d63c 8c8c ce3c

e_conv5.bias f4 [3]
0.019867549 0.013331771 -0.029571407
00000000: 45c1 a23c 806d 5a3c bc3f f2bc
